…
Deltas successfully computed for ['model.layers.4.mlp.down_proj.weight', 'model.layers.5.mlp.down_proj.weight', 'model.layers.6.mlp.down_proj.weight', 'model.layers.7.mlp.down_proj.weight', 'model.layers.8.mlp.down_proj.weight']
New weights successfully inserted into ['model.layers.4.mlp.down_proj.weight', 'model.layers.5.mlp.down_proj.weight', 'model.layers.6.mlp.down_proj.weight', 'model.layers.7.mlp.down_proj.weight', 'model.layers.8.mlp.down_proj.weight']
Metrics Summary:  {'pre': {'rewrite_acc': 0.6}, 'post': {'rewrite_acc': 1.0}}
--------------------------------------------------











Now we start evaluating
Model Name:  LlamaForCausalLM(
  (model): LlamaModel(
    (embed_tokens): Embedding(32000, 4096)
    (layers): ModuleList(
      (0-31): 32 x LlamaDecoderLayer(
        (self_attn): LlamaAttention(
          (q_proj): Linear(in_features=4096, out_features=4096, bias=False)
          (k_proj): Linear(in_features=4096, out_features=4096, bias=False)
          (v_proj): Linear(in_features=4096, out_features=4096, bias=False)
          (o_proj): Linear(in_features=4096, out_features=4096, bias=False)
          (rotary_emb): LlamaRotaryEmbedding()
        )
        (mlp): LlamaMLP(
          (gate_proj): Linear(in_features=4096, out_features=11008, bias=False)
          (up_proj): Linear(in_features=4096, out_features=11008, bias=False)
          (down_proj): Linear(in_features=11008, out_features=4096, bias=False)
          (act_fn): SiLU()
        )
        (input_layernorm): LlamaRMSNorm((4096,), eps=1e-05)
        (post_attention_layernorm): LlamaRMSNorm((4096,), eps=1e-05)
      )
    )
    (norm): LlamaRMSNorm((4096,), eps=1e-05)
    (rotary_emb): LlamaRotaryEmbedding()
  )
  (lm_head): Linear(in_features=4096, out_features=32000, bias=False)
)
Data Path:  ../../data/eval_data/merged_data_2024-10-18.json
Output Path:  ../../results/MEMIT/llama2-7b-hf-chat/ZsRE_1/1028_1832
0  to  50
generating!
writing to  ../../results/MEMIT/llama2-7b-hf-chat/ZsRE_1/1028_1832/adv_train/results.json
50  to  100
generating!
writing to  ../../results/MEMIT/llama2-7b-hf-chat/ZsRE_1/1028_1832/adv_train/results.json
…
writing to  ../../results/MEMIT/llama2-7b-hf-chat/ZsRE_1/1028_1832/adv_train/results.json
350  to  400
generating!
writing to  ../../results/MEMIT/llama2-7b-hf-chat/ZsRE_1/1028_1832/adv_train/results.json
400  to  450
generating!
writing to  ../../results/MEMIT/llama2-7b-hf-chat/ZsRE_1/1028_1832/adv_train/results.json
450  to  500
generating!
writing to  ../../results/MEMIT/llama2-7b-hf-chat/ZsRE_1/1028_1832/adv_train/results.json
500  to  550
generating!
writing to  ../../results/MEMIT/llama2-7b-hf-chat/ZsRE_1/1028_1832/adv_train/results.json
Model Name:  LlamaForCausalLM(
  (model): LlamaModel(
    (embed_tokens): Embedding(32000, 4096)
    (layers): ModuleList(
      (0-31): 32 x LlamaDecoderLayer(
        (self_attn): LlamaAttention(
          (q_proj): Linear(in_features=4096, out_features=4096, bias=False)
          (k_proj): Linear(in_features=4096, out_features=4096, bias=False)
          (v_proj): Linear(in_features=4096, out_features=4096, bias=False)
          (o_proj): Linear(in_features=4096, out_features=4096, bias=False)
          (rotary_emb): LlamaRotaryEmbedding()
        )
        (mlp): LlamaMLP(
          (gate_proj): Linear(in_features=4096, out_features=11008, bias=False)
          (up_proj): Linear(in_features=4096, out_features=11008, bias=False)
          (down_proj): Linear(in_features=11008, out_features=4096, bias=False)
          (act_fn): SiLU()
        )
        (input_layernorm): LlamaRMSNorm((4096,), eps=1e-05)
        (post_attention_layernorm): LlamaRMSNorm((4096,), eps=1e-05)
      )
    )
    (norm): LlamaRMSNorm((4096,), eps=1e-05)
    (rotary_emb): LlamaRotaryEmbedding()
  )
  (lm_head): Linear(in_features=4096, out_features=32000, bias=False)
)
Data Path:  ../../data/eval_data/merged_data_2024-10-18.json
Output Path:  ../../results/MEMIT/llama2-7b-hf-chat/ZsRE_1/1028_1832
0  to  50
generating!
writing to  ../../results/MEMIT/llama2-7b-hf-chat/ZsRE_1/1028_1832/GCG/results.json
Model Name:  LlamaForCausalLM(
  (model): LlamaModel(
    (embed_tokens): Embedding(32000, 4096)
    (layers): ModuleList(
      (0-31): 32 x LlamaDecoderLayer(
        (self_attn): LlamaAttention(
          (q_proj): Linear(in_features=4096, out_features=4096, bias=False)
          (k_proj): Linear(in_features=4096, out_features=4096, bias=False)
          (v_proj): Linear(in_features=4096, out_features=4096, bias=False)
          (o_proj): Linear(in_features=4096, out_features=4096, bias=False)
          (rotary_emb): LlamaRotaryEmbedding()
        )
        (mlp): LlamaMLP(
          (gate_proj): Linear(in_features=4096, out_features=11008, bias=False)
          (up_proj): Linear(in_features=4096, out_features=11008, bias=False)
          (down_proj): Linear(in_features=11008, out_features=4096, bias=False)
          (act_fn): SiLU()
        )
        (input_layernorm): LlamaRMSNorm((4096,), eps=1e-05)
        (post_attention_layernorm): LlamaRMSNorm((4096,), eps=1e-05)
      )
    )
    (norm): LlamaRMSNorm((4096,), eps=1e-05)
    (rotary_emb): LlamaRotaryEmbedding()
  )
  (lm_head): Linear(in_features=4096, out_features=32000, bias=False)
)
Data Path:  ../../data/eval_data/merged_data_2024-10-18.json
Output Path:  ../../results/MEMIT/llama2-7b-hf-chat/ZsRE_1/1028_1832
0  to  50
generating!
writing to  ../../results/MEMIT/llama2-7b-hf-chat/ZsRE_1/1028_1832/mix_eval_freeform_0811/results.json
50  to  100
generating!
writing to  ../../results/MEMIT/llama2-7b-hf-chat/ZsRE_1/1028_1832/mix_eval_freeform_0811/results.json
…
